…
proj.weight', 'predictor.predictor_blocks.7.attn.proj.bias', 'predictor.predictor_blocks.7.norm2.weight', 'predictor.predictor_blocks.7.norm2.bias', 'predictor.predictor_blocks.7.mlp.fc1.weight', 'predictor.predictor_blocks.7.mlp.fc1.bias', 'predictor.predictor_blocks.7.mlp.fc2.weight', 'predictor.predictor_blocks.7.mlp.fc2.bias', 'predictor.predictor_norm.weight', 'predictor.predictor_norm.bias', 'predictor.predictor_proj.weight', 'predictor.predictor_proj.bias']
Model = EEGPTClassifier(
  (chan_conv): Sequential(
    (0): Conv2dWithConstraint(23, 20, kernel_size=(1, 1), stride=(1, 1))
    (1): BatchNorm2d(20, eps=1e-05, momentum=0.1, affine=True, track_running_stats=True)
    (2): GELU(approximate='none')
    (3): Conv2d(20, 20, kernel_size=(1, 15), stride=(1, 1), groups=20)
    (4): BatchNorm2d(20, eps=1e-05, momentum=0.1, affine=True, track_running_stats=True)
    (5): GELU(approximate='none')
    (6): Dropout(p=0.25, inplace=False)
  )
  (target_encoder): EEGTransformer(
    (patch_embed): PatchEmbed(
      (proj): Conv2d(1, 512, kernel_size=(1, 64), stride=(1, 64))
    )
    (chan_embed): Embedding(62, 512)
    (blocks): ModuleList(
      (0-7): 8 x Block(
        (norm1): LayerNorm((512,), eps=1e-06, elementwise_affine=True)
        (attn): Attention(
          (qkv): Linear(in_features=512, out_features=1536, bias=True)
          (proj): Linear(in_features=512, out_features=512, bias=True)
          (proj_drop): Dropout(p=0.0, inplace=False)
        )
        (drop_path): Identity()
        (norm2): LayerNorm((512,), eps=1e-06, elementwise_affine=True)
        (mlp): MLP(
          (fc1): Linear(in_features=512, out_features=2048, bias=True)
          (act): GELU(approximate='none')
          (fc2): Linear(in_features=2048, out_features=512, bias=True)
          (drop): Dropout(p=0.0, inplace=False)
        )
      )
    )
    (norm): LayerNorm((512,), eps=1e-06, elementwise_affine=True)
  )
  (reconstructor): EEGTransformerReconstructor(
    (reconstructor_embed): Linear(in_features=512, out_features=512, bias=True)
    (time_embed): RotaryEmbedding()
    (chan_embed): Embedding(62, 512)
    (reconstructor_blocks): ModuleList(
      (0-7): 8 x Block(
        (norm1): LayerNorm((512,), eps=1e-06, elementwise_affine=True)
        (attn): Attention(
          (qkv): Linear(in_features=512, out_features=1536, bias=True)
          (proj): Linear(in_features=512, out_features=512, bias=True)
          (proj_drop): Dropout(p=0.0, inplace=False)
        )
        (drop_path): Identity()
        (norm2): LayerNorm((512,), eps=1e-06, elementwise_affine=True)
        (mlp): MLP(
          (fc1): Linear(in_features=512, out_features=2048, bias=True)
          (act): GELU(approximate='none')
          (fc2): Linear(in_features=2048, out_features=512, bias=True)
          (drop): Dropout(p=0.0, inplace=False)
        )
      )
    )
    (reconstructor_norm): LayerNorm((512,), eps=1e-06, elementwise_affine=True)
    (reconstructor_proj): Linear(in_features=512, out_features=64, bias=True)
  )
  (norm): Identity()
  (fc_norm): LayerNorm((512,), eps=1e-05, elementwise_affine=True)
  (head): Sequential(
    (0): Dropout(p=0.5, inplace=False)
    (1): LinearWithConstraint(in_features=63488, out_features=1, bias=True)
  )
)
number of params: 50900913
LR = 0.00050000
Batch size = 200
Update frequent = 1
Number of training examples = 297868
Number of training training per epoch = 1489
Assigned values = [… Skip weight decay name marked in model: {'reconstructor.chan_embed', 'reconstructor.time_embed', 'reconstructor.cls_token', 'target_encoder.chan_embed', 'reconstructor.pos_embed', 'target_encoder.summary_token'}
…
